…
visualize=False, warmup_bias_lr=0.1, warmup_epochs=3.0, warmup_momentum=0.8, weight_decay=0.0005, workers=8, workspace=None\n","\u001b[34m\u001b[1mtrain:\u001b[0m /content/FracAtlas_split/train... found 3265 images in 2 classes ✅ \n","\u001b[34m\u001b[1mval:\u001b[0m /content/FracAtlas_split/val... found 818 images in 2 classes ✅ \n","\u001b[34m\u001b[1mtest:\u001b[0m None...\n","Overriding model.yaml nc=1000 with nc=2\n","\n","                   from  n    params  module                                       arguments                     \n","  0                  -1  1       928  ultralytics.nn.modules.conv.Conv             [3, 32, 3, 2]                 \n","  1                  -1  1     18560  ultralytics.nn.modules.conv.Conv             [32, 64, 3, 2]                \n","  2                  -1  1     29056  ultralytics.nn.modules.block.C2f             [64, 64, 1, True]             \n","  3                  -1  1     73984  ultralytics.nn.modules.conv.Conv             [64, 128, 3, 2]               \n","  4                  -1  2    197632  ultralytics.nn.modules.block.C2f             [128, 128, 2, True]           \n","  5                  -1  1    295424  ultralytics.nn.modules.conv.Conv             [128, 256, 3, 2]              \n","  6                  -1  2    788480  ultralytics.nn.modules.block.C2f             [256, 256, 2, True]           \n","  7                  -1  1   1180672  ultralytics.nn.modules.conv.Conv             [256, 512, 3, 2]              \n","  8                  -1  1   1838080  ultralytics.nn.modules.block.C2f             [512, 512, 1, True]           \n","  9                  -1  1    660482  ultralytics.nn.modules.head.Classify         [512, 2]                      \n","YOLOv8s-cls summary: 56 layers, 5,083,298 parameters, 5,083,298 gradients, 12.6 GFLOPs\n","Transferred 156/158 items from pretrained weights\n","\u001b[34m\u001b[1mAMP: \u001b[0mrunning Automatic Mixed Precision (AMP) checks...\n","\u001b[KDownloading https://github.com/ultralytics/assets/releases/download/v8.4.0/yolo26n.pt to 'yolo26n.pt': 100% ━━━━━━━━━━━━ 5.3MB
…
